…
 class="keyword">else</span> <span class="string">"cpu"</span>)</span><br><span class="line"><span class="comment"># 假定当前机器支持GPU,应当打印出CUDA设备</span></span><br><span class="line">print(device)</span><br></pre></td></tr></tbody></table></figure><pre><code>cpu</code></pre><p>接下来的章节，假定<code>device</code>都是CUDA设备</p><p>然后这些方法将递归遍历所有模块并将其参数和缓冲区转换为CUDA张量：</p><figure class="highlight python"><table><tbody><tr><td class="gutter"><pre><span class="line">1</span><br></pre></td><td class="code"><pre><span class="line">net.to(device)</span><br></pre></td></tr></tbody></table></figure><pre><code>Net(  (conv1): Conv2d(3, 6, kernel_size=(5, 5), stride=(1, 1))  (pool): MaxPool2d(kernel_size=2, stride=2, padding=0, dilation=1, ceil_mode=False)  (conv2): Conv2d(6, 16, kernel_size=(5, 5), stride=(1, 1))  (fc1): Linear(in_features=400, out_features=120, bias=True)  (fc2): Linear(in_features=120, out_features=84, bias=True)  (fc3): Linear(in_features=84, out_features=10, bias=True))</code></pre><p>请记住，您还必须将每一步的输入和目标发送到GPU：</p><figure class="highlight python"><table><tbody><tr><td class="gutter"><pre><span class="line">1</span><br></pre></td><td class="code"><pre><span class="line">inputs, labels = inputs.to(device), labels.to(device)</span><br></pre></td></tr></tbody></table></figure><p>为什么我没有感到高速的加速呢？因为你的网络非常的小</p><p>练习：尝试增加网络的宽度（
…
ne">        size = x.size()[<span class="number">1</span>:]  <span class="comment"># 除批尺寸维度以外的其他所有维度</span></span><br><span class="line">        num_features = <span class="number">1</span></span><br><span class="line">        <span class="keyword">for</span> s <span class="keyword">in</span> size:</span><br><span class="line">            num_features *= s</span><br><span class="line">        <span class="keyword">return</span> num_features</span><br><span class="line">net = Net()</span><br><span class="line">print(net)</span><br></pre></td></tr></tbody></table></figure><pre><code>Net(  (conv1): Conv2d(1, 6, kernel_size=(5, 5), stride=(1, 1))  (conv2): Conv2d(6, 16, kernel_size=(5, 5), stride=(1, 1))  (fc1): Linear(in_features=400, out_features=120, bias=True)  (fc2): Linear(in_features=120, out_features=84, bias=True)  (fc3): Linear(in_features=84, out_features=10, bias=True))</code></pre><p>刚才已经完成了<code>forward</code>函数的定义，然后<code>backward</code>函数（计算梯度的位置）将在你声明了<code>autograd</code>之后自动定义。你可以在<code>forward</code>函数中使用任意一类张量操作</p><figure class="highlight python"><table><tbody><tr><td class="gutter"><pre><span class="line">1</span><br><span class="line">2</span><br><span class="line">3</span><br></pre></td><td class="code"><p
…
