…
f   cat : 52 %\n    Accuracy of  deer : 47 %\n    Accuracy of   dog : 47 %\n    Accuracy of  frog : 62 %\n    Accuracy of horse : 60 %\n    Accuracy of  ship : 59 %\n    Accuracy of truck : 58 %\n    \n\n那么之后我们需要做什么？在GPU上如何加速？\n\n## 在GPU上加速\n\n正如将张量转移到GPU上一样，你也可以将神经网络转移到GPU上\n\n如果CUDA可用，那么我首先将需要定义一个cuda可见的设备\n\n\n```python\ndevice = torch.device(\"cuda:0\" if torch.cuda.is_available() else \"cpu\")\n# 假定当前机器支持GPU,应当打印出CUDA设备\nprint(device)\n```\n\n    cpu\n    \n\n接下来的章节，假定`device`都是CUDA设备\n\n然后这些方法将递归遍历所有模块并将其参数和缓冲区转换为CUDA张量：\n\n\n```python\nnet.to(device)\n```\n\n\n\n\n    Net(\n      (conv1): Conv2d(3, 6, kernel_size=(5, 5), stride=(1, 1))\n      (pool): MaxPool2d(kernel_size=2, stride=2, padding=0, dilation=1, ceil_mode=False)\n      (conv2): Conv2d(6, 16, kernel_size=(5, 5), stride=(1, 1))\n      (fc1): Linear(in_features=400, out_features=120, bias=True)\n      (fc2): Linear(in_features=120, out_features=84, bias=True)\n      (fc3): Linear(in_features=84, out_features=10, bias=True)\n    )\n\n\n\n请记住，您还必须将每一步的输入和目标发送到GPU：\n\n\n```python\ninputs, labels = inputs.to(device), labels.to(device)\n```\n\n为什么我没有感到高速的加速呢？因为你的网络非常的小\n\n练习：尝试增加网络的宽度（第一个nn.Conv2d的第二个参数和第二个nn.Conv2d的第一个参数  - 它们需要是相同的数字），看看你能获得什么样的加速。\n\n## 在多个GPU上训练\n\n如果您想使用所有GPU查看更多加速的内容，请查看[Data Parallelism](https://waynehfut.com/2019/04/12/torch4/)\n","tags":["深度学习","PyTorc
…
 def forward(self,x):\n        # 使用最大池化，滑动窗口尺度（2，2）\n        x = F.max_pool2d(F.relu(self.conv1(x)), (2, 2))\n        # 如果大小为正方形，则只需要指定一个数字\n        x = F.max_pool2d(F.relu(self.conv2(x)),2)\n        x = x.view(-1, self.num_flat_features(x))\n        x = F.relu(self.fc1(x))\n        x = F.relu(self.fc2(x))\n        x = self.fc3(x)\n        return x\n    def num_flat_features(self,x):\n        size = x.size()[1:]  # 除批尺寸维度以外的其他所有维度\n        num_features = 1\n        for s in size:\n            num_features *= s\n        return num_features\nnet = Net()\nprint(net)\n```\n\n    Net(\n      (conv1): Conv2d(1, 6, kernel_size=(5, 5), stride=(1, 1))\n      (conv2): Conv2d(6, 16, kernel_size=(5, 5), stride=(1, 1))\n      (fc1): Linear(in_features=400, out_features=120, bias=True)\n      (fc2): Linear(in_features=120, out_features=84, bias=True)\n      (fc3): Linear(in_features=84, out_features=10, bias=True)\n    )\n    \n\n刚才已经完成了`forward`函数的定义，然后`backward`函数（计算梯度的位置）将在你声明了`autograd`之后自动定义。你可以在`forward`函数中使用任意一类张量操作\n\n\n```python\nparams = list(net.parameters())\nprint(len(params))\nprint(params[0].size())  # conv1 的权重\n```\n\n    10\n    torch.Size([6, 1, 5, 5])\n    \n\n接着尝试一下32x32的随机输入，注意LeNet的输入是要求32x32的，为了使用Mnist数据集，你也需要将从数据集中抽取的图片重设大小至32x32\n\n\n```p
…
